app/src/main/assets/house_prediction.tflite (tflite, 22364 bytes, 5 tensors)

sequential/dense_1/BiasAdd/ReadVariableOp f4 [64]
-1.5172449 1.4372567 7.6336055 7.6425557 7.634646 7.6392374 -0.12714855 7.6333385
7.644594 3.932134 7.501884 7.6370816 7.6366844 2.7225525 -0.16555695 7.642179
2.7189887 2.3550377 7.103999 7.6454616 4.8584337 7.635698 7.632413 7.655484
7.618965 7.6369524 5.9685903 7.63566 7.659372 7.63801 -0.32372126 7.6525507
7.6451063 -0.9352718 7.6442127 7.644613 -2.15456 7.642921 6.9839864 5.6659465
7.654597 7.63625 -1.9524603 -0.15858959 -0.17057012 7.6433578 -0.19157267 -0.44687095
7.64268 7.633482 7.638819 7.6466084 7.650529 7.639314 7.6414204 7.575391
7.609611 7.655012 -0.13136826 -2.2615721 -0.1318505 7.645801 7.6356435 4.564674
00000000: 1535 c2bf 07f8 b73f 7f46 f440 d18f f440
00000010: 054f f440 a274 f440 3b33 02be 4f44 f440
00000020: 84a0 f440 15a8 7b40 6f0f f040 f962 f440
00000030: b85f f440 4d3e 2e40 c387 29be bb8c f440
00000040: e903 2e40 f0b8 1640 f653 e340 9fa7 f440
00000050: 4a78 9b40 a357 f440 ba3c f440 baf9 f440
00000060: 90ce f340 ea61 f440 b1fe be40 5457 f440
00000070: 9319 f540 946a f440 cbbe a5be b2e1 f440
00000080: b6a4 f440 f96d 6fbf 649d f440 aba0 f440
00000090: 50e4 09c0 cf92 f440 d17c df40 6f4f b540
000000a0: 75f2 f440 295c f440 38ea f9bf 4f65 22be
000000b0: efa9 2ebe 6396 f440 a02b 44be 45cc e4be
000000c0: d690 f440 7c45 f440 3571 f440 04b1 f440
000000d0: 22d1 f440 4375 f440 8486 f440 9a69 f240
000000e0: ef81 f340 dcf5 f440 6785 06be 99bd 10c0
000000f0: d103 07be 67aa f440 3157 f440 cf11 9240

sequential/dense/BiasAdd/ReadVariableOp f4 [64]
-1.2147571 1.7888498 2.746625 -0.47779763 3.201302 4.6368613 6.8136005 3.0662055
8.263282 2.1850877 2.0480924 7.5281844 8.760387 6.0170884 6.6257215 6.6856484
2.1157014 9.758393 7.353536 7.6290965 4.273027 -0.87420595 6.1616697 6.414107
8.764271 -4.1038485 -4.899151 2.8138812 1.8133787 2.8594913 6.919791 8.880836
9.476122 6.8582907 -7.3563647 3.0640898 7.831101 5.5791216 9.302789 8.811491
1.0096395 4.259984 1.5896298 6.6399646 9.098278 8.6775465 2.5715218 8.29628
6.769205 2.9387448 -2.3144665 1.7698928 11.280558 4.9784603 6.0211797 5.205468
3.0934806 10.417711 5.914194 7.9944186 -3.4954832 -3.5053563 6.8690257 8.036628
00000000: 297d 9bbf 08f9 e43f b4c8 2f40 e4a1 f4be
00000010: 22e2 4c40 2b61 9440 0409 da40 b63c 4440
00000020: 6736 0441 7ad8 0b40 f213 0340 e3e6 f040
00000030: 8c2a 0c41 fd8b c040 e905 d440 d5f0 d540
00000040: a767 0740 6122 1c41 2b50 eb40 8f21 f440
00000050: a3bc 8840 f6cb 5fbf 662c c540 5d40 cd40
00000060: 743a 0c41 ba52 83c0 d8c5 9cc0 a116 3440
00000070: cb1c e83f e801 3740 ee6e dd40 e717 0e41
00000080: 329e 1741 1e77 db40 5767 ebc0 0c1a 4440
00000090: 6198 fa40 2a88 b240 39d8 1441 defb 0c41
000000a0: de3b 813f ca51 8840 fd78 cb3f 977a d440
000000b0: 8c92 1141 3bd7 0a41 d093 2440 90bd 0441
000000c0: 549d d840 6514 3c40 3820 14c0 d98b e23f
000000d0: 2a7d 3441 8c4f 9f40 81ad c040 3293 a640
000000e0: 96fb 4540 f2ae 2641 1441 bd40 47d2 ff40
000000f0: ffb5 5fc0 c257 60c0 0fcf db40 0796 0041

sequential/dense/MatMul f4 [64, 13]
-7.9837313 -8.74483 2.8615587 -1.4563336 4.3970833 -5.6175003 6.248923 4.117186
-3.6526523 -0.8058979 -0.06809579 -1.5174242 -2.9148002 -7.575082 -5.4824514 4.093207
-3.5138588 7.7653184 -10.054031 6.709682 3.2278073 -5.636116 -3.8857765 -2.3370903
-4.118252 0.26693633 -4.7131114 -4.9425387 0.32469055 9.060646 1.8540394 -7.715107
-0.22746722 6.536989 -3.2015917 -3.8532488 -2.6189542 -3.309057 -1.6666951 0.7366115
-7.183172 -9.6935215 -4.0651994 10.057947 1.116347 9.587256 10.16465 0.534493
-2.6293066 0.4676358 -2.659646 1.8694044 -1.9204898 -6.907566 0.6897019 -3.1163092
-3.200009 -4.3180513 1.9171925 -0.6660221 -2.276895 -7.8219066 -3.429467 -5.197415
2.3910162 -10.46642 -9.438524 -0.09925041 0.019872317 -6.3565903 2.8310044 -3.087899
1.0289608 3.5679731 -0.9851566 -4.854422 -5.3099985 -2.1138778 -1.1819865 -8.933602
-0.575482 -0.25369897 -3.1028614 1.3680983 0.5097141 0.05120104 0.8407108 -5.4245715
-6.516757 -6.9862657 2.8574538 -4.3236103 -1.3735678 5.6688743 -6.495423 -7.5004063
3.6571207 -1.1352147 13.78182 3.3256176 1.2287813 -3.26731 -3.9142342 0.31948665
-4.2147017 -0.5722624 0.92754364 -7.5517874 4.4367514 3.940449 1.0014937 4.6870556
-2.9198318 -5.2879777 -8.014817 -1.565794 -4.0337043 0.59809846 -1.3034967 7.6465015
-5.702822 8.456645 -4.396495 6.4663315 11.351552 0.5368509 -5.837841 -2.0546691
-2.4168546 -1.8703536 1.4024415 -3.3165133 1.6200161 -8.453203 4.6310244 -14.210673
1.5504644 8.255216 0.5145999 0.32845142 -2.0502746 -8.973886 5.353788 0.82925075
3.8453875 -4.8182364 0.9321698 -0.31480646 -0.2630539 0.33339146 -0.3432639 -2.0081084
-1.8204585 -7.0744205 -8.165416 -0.064782485 3.3571913 1.3173211 -3.822974 -0.14046046
-2.4341278 2.144501 -1.4087896 1.5366474 -1.2681078 0.35997444 -8.956357 -8.834768
-1.2535543 -0.062923595 0.16118836 1.3469857 2.7067723 -0.06844932 -7.2935457 -2.7551425
7.0435367 -2.185544 -7.327248 -6.2506995 -2.5081897 -3.8417964 -4.360079 -12.905464
-0.0018453399 2.5358403 -4.3308573 2.4751072 1.7565712 -0.008862806 1.9998512 3.5891128
-6.004251 -6.7744336 0.76516235 -6.893078 -5.740807 -1.9647248 -3.8625014 5.508153
-2.4702427 4.202573 4.171943 -3.0682712 -4.0834227 -6.864655 -2.7390108 -2.9291494
-1.5287629 0.5854873 1.7657647 7.15938 2.0815232 -18.374504 0.547403 0.15358444
-5.920023 1.841988 -2.3070061 -6.355191 -3.1201565 -13.494898 2.9108803 -2.8563838
1.8260864 5.0485916 -3.2023044 2.963737 2.2149746 0.8061223 4.335431 -9.915508
-9.014208 2.621523 0.1477057 -8.422762 -0.26948637 -0.04907813 -2.677614 1.7733591
0.6616834 -0.13001001 1.115421 -5.9890947 -7.5528646 -7.5601516 2.985268 -3.412173
-2.6112282 3.359405 4.6581955 -0.5669255 4.7574015 -1.8155411 4.9364123 -11.2613945
00000000: ba7a ffc0 d3ea 0bc1 c723 3740 2469 babf
00000010: e8b4 8c40 90c2 b3c0 2df7 c740 fdbf 8340
00000020: 0ec5 69c0 534f 4ebf ce75 8bbd f53a c2bf
00000030: 168c 3ac0 1267 f2c0 3e70 afc0 8dfb 8240
00000040: 10e3 60c0 7d7d f840 50dd 20c1 b7b5 d640
00000050: 6594 4e40 105b b4c0 90b0 78c0 e392 15c0
00000060: b8c8 83c0 e1ab 883e cfd1 96c0 4729 9ec0
00000070: d73d a63e 68f8 1041 2a51 ed3f 28e2 f6c0
00000080: 2bed 68be 042f d140 e1e6 4cc0 a19b 76c0
00000090: f29c 27c0 97c7 53c0 4456 d5bf 9292 3c3f
000000a0: 8cdc e5c0 aa18 1bc1 1d16 82c0 5aed 2041
000000b0: 75e4 8e3f 6765 1941 68a2 2241 89d4 083f
000000c0: 8f46 28c0 f66d ef3e a437 2ac0 a548 ef3f
000000d0: 9cd2 f5bf c80a ddc0 4e90 303f 9c71 47c0
000000e0: f3cc 4cc0 7a2d 8ac0 9066 f53f 6d80 2abf
000000f0: a6b8 11c0 0f4d fac0 637c 5bc0 3951 a6c0
00000100: 6906 1940 7576 27c1 3204 17c1 cd43 cbbd
00000110: 45cb a23c 3069 cbc0 2d2f 3540 23a0 45c0
00000120: fdb4 833f ac59 6440 3933 7cbf 6d57 9bc0
00000130: 82eb a9c0 c649 07c0 554b 97bf 09f0 0ec1
00000140: ca52 13bf d5e4 81be 4895 46c0 d81d af3f
00000150: a07c 023f 2fb8 513d d338 573f 1796 adc0
00000160: 4689 d0c0 7d8f dfc0 86e0 3640 045b 8ac0
00000170: 12d1 afbf 6b67 b540 81da cfc0 5403 f0c0
00000180: 440e 6a40 b74e 91bf 5682 5c41 ebd6 5440
00000190: b548 9d3f 9b1b 51c0 d082 7ac0 c193 a33e
000001a0: d6de 86c0 ca7f 12bf 8073 6d3f 3ea8 f1c0
000001b0: def9 8d40 5130 7c40 f230 803f 5cfc 9540
000001c0: 86de 3ac0 1d37 a9c0 b13c 00c1 f06b c8bf
000001d0: 1b14 81c0 fb1c 193f fbd8 a6bf 24b0 f440
000001e0: 857d b6c0 6b4e 0741 16b0 8cc0 30ec ce40
000001f0: f59f 3541 106f 093f 98cf bac0 b37f 03c0
00000200: bfad 1ac0 bf67 efbf 3483 b33f c141 54c0
00000210: b05c cf3f 5240 07c1 5a31 9440 eb5e 63c1
00000220: 9e75 c63f 5d15 0441 d2bc 033f c92a a83e
00000230: b337 03c0 0995 0fc1 3b52 ab40 c749 543f
00000240: d41a 7640 fe2e 9ac0 aea2 6e3f 502e a1be
00000250: 00af 86be 49b2 aa3e 49c0 afbe d984 00c0
00000260: c904 e9bf a761 e2c0 8ba5 02c1 aeac 84bd
00000270: 39dc 5640 fa9d a83f 9bab 74c0 ded4 0fbe
00000280: c0c8 1bc0 813f 0940 3853 b4bf ddb0 c43f
00000290: 5b51 a2bf 924e b83e 3d4d 0fc1 365b 0dc1
000002a0: 7874 a0bf 16de 80bd 900e 253e 076a ac3f
000002b0: c23b 2d40 282f 8cbd ba64 e9c0 4154 30c0
000002c0: a764 e140 f4df 0bc0 d178 eac0 bb05 c8c0
000002d0: 2e86 20c0 fedf 75c0 c485 8bc0 c87c 4ec1
000002e0: 55df f1ba 354b 2240 6296 8ac0 2868 1e40
000002f0: 53d7 e03f 4d35 11bc 20fb ff3f 06b4 6540
00000300: d322 c0c0 29c8 d8c0 aee1 433f 1894 dcc0
00000310: b1b4 b7c0 1a7c fbbf 3933 77c0 ca42 b040
00000320: 7518 1ec0 7a7b 8640 8f80 8540 8e5e 44c0
00000330: 66ab 82c0 41ab dbc0 f44b 2fc0 2f77 3bc0
00000340: 81ae c3bf 7fe2 153f 9404 e23f a419 e540
00000350: ad37 0540 fcfe 92c1 9a22 0c3f 3d45 1d3e
00000360: d470 bdc0 43c6 eb3f fda5 13c0 ba5d cbc0
00000370: a5b0 47c0 1aeb 57c1 dd4b 3a40 fece 36c0
00000380: 33bd e93f 108e a140 8ef2 4cc0 dead 3d40
00000390: 25c2 0d40 085e 4e3f dabb 8a40 eca5 1ec1
000003a0: 323a 10c1 08c7 2740 2a40 173e a2c3 06c1
000003b0: 1efa 89be 2606 49bd 075e 2bc0 6efd e23f
000003c0: 1564 293f 5821 05be 1ec6 8e3f aaa6 bfc0
000003d0: 11b1 f1c0 c3ec f1c0 a20e 3f40 0b61 5ac0
000003e0: 5d1e 27c0 7e00 5740 f00f 9540 0822 11bf
000003f0: a23c 9840 a763 e8bf 17f7 9d40 ac2e 34c1

sequential/dense_1/MatMul f4 [64, 64]
-4.192514 -16.552217 -1.9684219 2.2669508 4.3491793 -1.2229991 3.2007887 1.372175
-2.1111398 5.7558947 0.74198914 -6.7500544 -1.6182803 -0.4744673 2.2449448 -3.3374746
-5.485123 -9.863174 3.7806141 -2.734315 2.9783442 -4.9590235 3.2962337 3.2405908
-5.726517 -4.565372 -14.148595 0.65142024 2.3458052 4.6313844 -7.6327314 6.355844
-6.637287 3.6361048 -6.3077765 4.296147 -5.518854 2.1221583 -9.955676 1.8144802
-5.2738247 -3.5293288 -3.6833174 -1.0597187 2.6937394 1.9547627 3.68222 0.5812787
-6.2584143 -15.174907 -17.964273 0.47668657 -2.2183814 0.27002567 3.6018417 -0.08472627
-8.135059 -11.979844 1.8697492 4.4033666 -12.7558565 -6.402088 -0.81795704 2.9012494
9.092937 7.531632 5.4278727 -7.0098157 3.930571 -6.631484 0.14215876 -14.539007
-1.3850302 0.51508486 0.6496443 3.403345 -1.1457008 1.4454336 -5.669858 3.5177574
6.121897 -25.662151 0.122968815 -5.7976727 3.4191415 10.370273 -0.6509773 0.28327617
-0.63537806 15.796591 3.2752926 5.8980064 4.840326 2.1332061 3.646449 -3.6236198
-0.33220893 0.17248952 15.848164 -4.119556 2.077602 -4.378753 8.117955 2.5155838
4.634338 9.656333 4.1910496 -22.974762 2.3986518 -1.1844878 1.2935234 -2.0919755
2.0259387 -5.701225 10.029569 3.2215126 -0.644942 5.2056475 6.603918 -3.1888459
-5.241562 5.1419916 -0.49533507 -0.004819695 12.937015 3.3198886 5.1465726 0.6791835
5.7936068 4.661871 5.260153 -4.5150895 1.5090559 -1.7460251 1.6215179 -5.4313555
2.2845032 1.2788428 -3.3194547 3.8320642 2.0623212 1.3890463 -4.8164115 3.6892776
7.797102 -9.377342 2.1834643 2.9866683 4.1113257 6.2768297 1.1935476 1.5392569
3.0614018 14.776505 2.8953054 2.7056205 5.3721223 0.5811244 7.420921 2.948994
3.9488602 1.7178572 12.114215 3.2030125 -1.3589349 -2.5560195 6.7326064 3.4794972
6.085192 2.8516955 6.009188 -7.4017596 4.638845 1.2544707 5.521179 1.8918972
6.074785 -1.9423125 5.1669464 2.8170738 3.1673038 4.53636 6.2577915 -0.93908775
3.5533192 7.248895 0.6874789 2.0302584 8.534487 2.8600302 4.8318186 4.9533253
6.05929 4.7203918 4.9839034 -4.6398544 1.5027641 -1.93693 1.9103318 -5.398929
2.055706 1.2825664 -3.4382782 4.0056562 2.2359326 1.6914409 -5.0722737 3.795412
8.033426 -9.353145 1.9140117 2.6858234 3.9409313 6.132691 0.91041845 1.6735668
3.426542 14.5765 2.619315 2.9610581 5.3002625 0.484616 7.2207108 2.830112
4.2444124 1.8314734 12.183974 3.1440876 -1.3498306 -2.7213204 6.520842 3.7612703
5.8841214 2.6780796 5.637817 -7.232223 4.8613176 1.0910428 5.79429 1.6631532
6.2339473 -2.166456 5.1967316 2.7922053 3.2914536 4.752364 6.2388773 -0.7739507
3.5040147 7.532415 0.99240047 2.275574 8.555817 2.5461147 4.8176174 5.1982493
00000000: 1329 86c0 f16a 84c1 40f5 fbbf b915 1140
00000010: 7a2c 8b40 3c8b 9cbf b9d9 4c40 6ea3 af3f
00000020: ea1c 07c0 4a30 b840 00f3 3d3f 7200 d8c0
00000030: cf23 cfbf 61ed f2be 2dad 0f40 2f99 55c0
00000040: 2186 afc0 90cf 1dc1 95f5 7140 04ff 2ec0
00000050: 319d 3e40 52b0 9ec0 7ef5 5240 d765 4f40
00000060: a13f b7c0 8717 92c0 a560 62c1 7ac3 263f
00000070: ac21 1640 4d34 9440 563f f4c0 1363 cb40
00000080: a864 d4c0 f1b5 6840 4ed9 c9c0 097a 8940
00000090: 749a b0c0 71d1 0740 734a 1fc1 e340 e83f
000000a0: 2cc3 a8c0 86e0 61c0 79bb 6bc0 dda4 87bf
000000b0: 3a66 2c40 aa35 fa3f 7ea9 6b40 aece 143f
000000c0: ee44 c8c0 6bcc 72c1 d5b6 8fc1 4310 f43e
000000d0: f6f9 0dc0 ce40 8a3e 9384 6640 f784 adbd
000000e0: 3429 02c1 71ad 3fc1 f153 ef3f 61e8 8c40
000000f0: fd17 4cc1 e8dd ccc0 a265 51bf 12ae 3940
00000100: ac7c 1141 2103 f140 22b1 ad40 6950 e0c0
00000110: 7a8e 7b40 1e35 d4c0 1192 113e c69f 68c1
00000120: ab48 b1bf 9adc 033f 174f 263f 68d0 5940
00000130: 53a6 92bf f803 b93f 7a6f b5c0 f022 6140
00000140: 95e6 c340 164c cdc1 13d7 fb3d 8986 b9c0
00000150: 37d3 5a40 a3ec 2541 73a6 26bf 9309 913e
00000160: 23a8 22bf d6be 7c41 659e 5140 78bc bc40
00000170: f3e3 9a40 7386 0840 6c5f 6940 63e9 67c0
00000180: 4a17 aabe 18a1 303e 1492 7d41 67d3 83c0
00000190: 6ef7 0440 bf1e 8cc0 25e3 0141 53ff 2040
000001a0: 7f4c 9440 5780 1a41 141d 8640 50cc b7c1
000001b0: 8383 1940 4c9d 97bf 2d92 a53f ede2 05c0
000001c0: fba8 0140 6f70 b6c0 1d79 2041 432d 4e40
000001d0: eb1a 25bf aa94 a640 4c53 d340 0d16 4cc0
000001e0: e0ba a7c0 328b a440 8f9c fdbe 88ee 9dbb
000001f0: 03fe 4e41 0e79 5440 b9b0 a440 f8de 2d3f
00000200: 3a65 b940 0c2e 9540 2c53 a840 9d7b 90c0
00000210: be28 c13f c07d dfbf e68d cf3f aacd adc0
00000220: 4d35 1240 1fb1 a33f f271 54c0 8a40 7540
00000230: 12fd 0340 45cc b13f 0b20 9ac0 201d 6c40
00000240: dc81 f940 9809 16c1 e1bd 0b40 9325 3f40
00000250: fb8f 8340 cadb c840 2bc6 983f 5f06 c53f
00000260: 02ee 4340 916c 6c41 af4c 3940 e328 2d40
00000270: 6de8 ab40 92c4 143f 2f78 ed40 51bc 3c40
00000280: 20ba 7c40 bfe2 db3f d3d3 4141 28fe 4c40
00000290: 94f1 adbf d395 23c0 8371 d740 15b0 5e40
000002a0: e5b9 c240 2e82 3640 454b c040 37db ecc0
000002b0: 6b71 9440 7f92 a03f 80ad b040 b029 f23f
000002c0: a464 c240 b29d f8bf a057 a540 f04a 3440
000002d0: 1bb5 4a40 dc29 9140 d43f c840 0e68 70bf
000002e0: 9569 6340 f3f6 e740 9efe 2f3f c1ef 0140
000002f0: 428d 0841 bc0a 3740 429e 9a40 a481 9e40
00000300: b4e5 c140 730d 9740 237c 9f40 b079 94c0
00000310: 935a c03f 52ed f7bf c185 f43f 07c4 acc0
00000320: b090 0340 232b a43f c00c 5cc0 562e 8040
00000330: 8519 0f40 2381 d83f 1150 a2c0 08e8 7240
00000340: ea88 0041 7ba6 15c1 56fe f43f 88e4 2b40
00000350: 3838 7c40 013f c440 2f11 693f 7037 d63f
00000360: 774c 5b40 5839 6941 dba2 2740 fa81 3d40
00000370: c09b a940 971f f83e 1010 e740 8e20 3540
00000380: 3ad2 8740 b86d ea3f 8ff1 4241 bb38 4940
00000390: 40c7 acbf 1d2a 2ec0 bdaa d040 a7b8 7040
000003a0: b94a bc40 a865 2b40 ff68 b440 5f6e e7c0
000003b0: ea8f 9b40 4aa7 8b3f d36a b940 34e2 d43f
000003c0: 7f7c c740 37a7 0ac0 a04b a640 7eb3 3240
000003d0: 2da7 5240 5e13 9840 e2a4 c740 a221 46bf
000003e0: c741 6040 8b09 f140 f50d 7e3f 01a3 1140
000003f0: a0e4 0841 8bf3 2240 ec29 9a40 0f58 a640

sequential/dense_2/MatMul f4 [1, 64]
-53.27512 45.32709 6.8472314 6.69976 6.7117887 6.732222 -0.12281066 6.7827373
6.660729 -26.157675 6.7205057 6.7630873 6.6850715 -23.133043 -0.14853583 6.7184763
-29.118427 24.776827 6.9049363 6.607629 -24.948378 6.71546 6.7833853 6.67166
6.5708294 6.8756833 29.860134 6.8523235 6.5622716 6.669067 0.001058308 6.547836
6.6862617 -24.813004 6.6852803 6.7264147 -11.597078 6.683126 7.0122266 -27.859972
6.6322913 6.892652 -22.699457 -0.085576855 -0.05602935 6.706546 -0.015468262 -9.4564085
6.6081767 6.799185 6.606431 6.665734 6.5799017 6.6429377 6.791511 6.5497537
6.6106796 6.554859 -0.13780175 -42.20435 -0.056044932 6.6999993 6.841793 24.231344
00000000: b919 55c2 f14e 3542 851c db40 6f64 d640
00000010: f9c6 d640 5d6e d740 2884 fbbd 2f0c d940
00000020: b124 d540 eb42 d1c1 620e d740 366b d840
00000030: 1bec d540 7910 b9c1 c719 18be c2fd d640
00000040: 8af2 e8c1 f136 c641 3df5 dc40 b271 d340
00000050: 4796 c7c1 0ce5 d640 7e11 d940 3d7e d540
00000060: 3c44 d240 9905 dc40 8ee1 ee41 3c46 db40
00000070: 21fe d140 ff68 d540 ecb6 8a3a df87 d140
00000080: dbf5 d540 0881 c6c1 d1ed d540 ca3e d740
00000090: a28d 39c1 2bdc d540 2964 e040 39e1 dec1
000000a0: bb3b d440 9b90 dc40 7d98 b5c1 eb42 afbd
000000b0: 087f 65bd 069c d640 986e 7dbc 734d 17c1
000000c0: 2f76 d340 ec92 d940 e267 d340 b14d d540
000000d0: 8e8e d240 f292 d440 0f54 d940 9597 d140
000000e0: b08a d340 68c1 d140 e71b 0dbe 41d1 28c2
000000f0: 5f8f 65bd 6566 d640 f8ef da40 cbd9 c141
